[03-12 21:45:26] p92386 (train_TCQE_TFLEX.py:893) - {'self': MyExperiment(OutputSchema(/home/pabbasi/pytorch_test/NTFLEXo/NTFLEX/TFLEX/output/WIKI-TFLEX_base), DistributeSchema(gpu=-1 in None)), 'output': OutputSchema(/home/pabbasi/pytorch_test/NTFLEXo/NTFLEX/TFLEX/output/WIKI-TFLEX_base), 'data': TemporalComplexQueryData(dataset=WIKI(/home/pabbasi/pytorch_test/NTFLEXo/NTFLEX/TFLEX/data/WIKI), cache_path=<ComplexTemporalQueryData.ComplexTemporalQueryDatasetCachePath object at 0x772ca654a820>), 'model': TFLEX(
  (entity_feature_embedding): Embedding(16470, 800)
  (timestamp_feature_embedding): Embedding(2026, 800)
  (relation_feature_embedding): Embedding(124, 800)
  (relation_logic_embedding): Embedding(124, 800)
  (relation_time_feature_embedding): Embedding(124, 800)
  (relation_time_logic_embedding): Embedding(124, 800)
  (entity_projection): EntityProjection(
    (dropout): Dropout(p=0.1, inplace=False)
    (layer1): Linear(in_features=3200, out_features=800, bias=True)
    (layer0): Linear(in_features=800, out_features=3200, bias=True)
    (layer2): Linear(in_features=800, out_features=800, bias=True)
  )
  (entity_intersection): EntityIntersection(
    (feature_layer_1): Linear(in_features=1600, out_features=800, bias=True)
    (feature_layer_2): Linear(in_features=800, out_features=800, bias=True)
    (time_feature_layer_1): Linear(in_features=1600, out_features=800, bias=True)
    (time_feature_layer_2): Linear(in_features=800, out_features=800, bias=True)
  )
  (entity_union): EntityUnion(
    (feature_layer_1): Linear(in_features=1600, out_features=800, bias=True)
    (feature_layer_2): Linear(in_features=800, out_features=800, bias=True)
    (time_feature_layer_1): Linear(in_features=1600, out_features=800, bias=True)
    (time_feature_layer_2): Linear(in_features=800, out_features=800, bias=True)
  )
  (entity_negation): EntityNegation(
    (feature_layer_1): Linear(in_features=1600, out_features=800, bias=True)
    (feature_layer_2): Linear(in_features=800, out_features=800, bias=True)
  )
  (time_projection): TimeProjection(
    (dropout): Dropout(p=0.1, inplace=False)
    (layer1): Linear(in_features=3200, out_features=800, bias=True)
    (layer0): Linear(in_features=800, out_features=3200, bias=True)
    (layer2): Linear(in_features=800, out_features=800, bias=True)
  )
  (time_intersection): TemporalIntersection(
    (feature_layer_1): Linear(in_features=1600, out_features=800, bias=True)
    (feature_layer_2): Linear(in_features=800, out_features=800, bias=True)
    (time_feature_layer_1): Linear(in_features=1600, out_features=800, bias=True)
    (time_feature_layer_2): Linear(in_features=800, out_features=800, bias=True)
  )
  (time_union): TemporalUnion(
    (feature_layer_1): Linear(in_features=1600, out_features=800, bias=True)
    (feature_layer_2): Linear(in_features=800, out_features=800, bias=True)
    (time_feature_layer_1): Linear(in_features=1600, out_features=800, bias=True)
    (time_feature_layer_2): Linear(in_features=800, out_features=800, bias=True)
  )
  (time_negation): TemporalNegation(
    (feature_layer_1): Linear(in_features=1600, out_features=800, bias=True)
    (feature_layer_2): Linear(in_features=800, out_features=800, bias=True)
  )
  (time_before): TemporalBefore()
  (time_after): TemporalAfter()
  (time_next): TemporalNext()
), 'start_step': 0, 'max_steps': 100001, 'every_test_step': 5000, 'every_valid_step': 5000, 'batch_size': 128, 'test_batch_size': 8, 'negative_sample_size': 128, 'train_device': 'cuda:0', 'test_device': 'cuda:0', 'resume': False, 'resume_by_score': 0.0, 'lr': 0.0001, 'cpu_num': 1, 'hidden_dim': 800, 'input_dropout': 0.1, 'gamma': 15.0, 'center_reg': 0.02, 'train_tasks': 'Pe,Pe2,e2i,Pt,aPt,bPt,t2i', 'train_all': False, 'eval_tasks': 'Pe,Pe2,e2i,Pt,aPt,bPt,t2i,e2u,t2u', 'eval_all': False, '__class__': <class '__main__.MyExperiment'>}
…
