[03-12 10:17:04] p82791 (train_NTFLEX.py:1417) - {'self': MyExperiment(OutputSchema(/home/pabbasi/pytorch_test/NTFLEXo/NTFLEX/output/WIKI-NTFLEX), DistributeSchema(gpu=-1 in None)), 'output': OutputSchema(/home/pabbasi/pytorch_test/NTFLEXo/NTFLEX/output/WIKI-NTFLEX), 'data': NumericalComplexQueryData(dataset=WIKI(/home/pabbasi/pytorch_test/NTFLEXo/NTFLEX/data/WIKI), cache_path=<ComplexNumericalQueryData.ComplexNumericalQueryDatasetCachePath object at 0x7785e476d1c0>), 'model': NTFLEX(
  (entity_feature_embedding): Embedding(18177, 800)
  (timestamp_feature_embedding): Embedding(2026, 800)
  (value_feature_embedding): Embedding(8498, 800)
  (relation_feature_embedding): Embedding(124, 800)
  (relation_logic_embedding): Embedding(124, 800)
  (relation_time_feature_embedding): Embedding(124, 800)
  (relation_time_logic_embedding): Embedding(124, 800)
  (relation_value_feature_embedding): Embedding(124, 800)
  (relation_value_logic_embedding): Embedding(124, 800)
  (attribute_feature_embedding): Embedding(50, 800)
  (attribute_logic_embedding): Embedding(50, 800)
  (attribute_time_feature_embedding): Embedding(50, 800)
  (attribute_time_logic_embedding): Embedding(50, 800)
  (attribute_value_feature_embedding): Embedding(50, 800)
  (attribute_value_logic_embedding): Embedding(50, 800)
  (entity_projection): EntityProjection(
    (dropout): Dropout(p=0.1, inplace=False)
    (layer1): Linear(in_features=4800, out_features=800, bias=True)
    (layer0): Linear(in_features=800, out_features=4800, bias=True)
    (layer2): Linear(in_features=800, out_features=800, bias=True)
  )
  (entity_intersection): EntityIntersection(
    (feature_layer_1): Linear(in_features=1600, out_features=800, bias=True)
    (feature_layer_2): Linear(in_features=800, out_features=800, bias=True)
    (time_feature_layer_1): Linear(in_features=1600, out_features=800, bias=True)
    (time_feature_layer_2): Linear(in_features=800, out_features=800, bias=True)
    (value_feature_layer_1): Linear(in_features=1600, out_features=800, bias=True)
    (value_feature_layer_2): Linear(in_features=800, out_features=800, bias=True)
  )
  (entity_union): EntityUnion(
    (feature_layer_1): Linear(in_features=1600, out_features=800, bias=True)
    (feature_layer_2): Linear(in_features=800, out_features=800, bias=True)
    (time_feature_layer_1): Linear(in_features=1600, out_features=800, bias=True)
    (time_feature_layer_2): Linear(in_features=800, out_features=800, bias=True)
    (value_feature_layer_1): Linear(in_features=1600, out_features=800, bias=True)
    (value_feature_layer_2): Linear(in_features=800, out_features=800, bias=True)
  )
  (entity_negation): EntityNegation(
    (feature_layer_1): Linear(in_features=1600, out_features=800, bias=True)
    (feature_layer_2): Linear(in_features=800, out_features=800, bias=True)
  )
  (time_projection): TimeProjection(
    (dropout): Dropout(p=0.1, inplace=False)
    (layer1): Linear(in_features=4800, out_features=800, bias=True)
    (layer0): Linear(in_features=800, out_features=4800, bias=True)
    (layer2): Linear(in_features=800, out_features=800, bias=True)
  )
  (time_intersection): TemporalIntersection(
    (feature_layer_1): Linear(in_features=1600, out_features=800, bias=True)
    (feature_layer_2): Linear(in_features=800, out_features=800, bias=True)
    (time_feature_layer_1): Linear(in_features=1600, out_features=800, bias=True)
    (time_feature_layer_2): Linear(in_features=800, out_features=800, bias=True)
    (value_feature_layer_1): Linear(in_features=1600, out_features=800, bias=True)
    (value_feature_layer_2): Linear(in_features=800, out_features=800, bias=True)
  )
  (time_union): TemporalUnion(
    (feature_layer_1): Linear(in_features=1600, out_features=800, bias=True)
    (feature_layer_2): Linear(in_features=800, out_features=800, bias=True)
    (time_feature_layer_1): Linear(in_features=1600, out_features=800, bias=True)
    (time_feature_layer_2): Linear(in_features=800, out_features=800, bias=True)
    (value_feature_layer_1): Linear(in_features=1600, out_features=800, bias=True)
    (value_feature_layer_2): Linear(in_features=800, out_features=800, bias=True)
  )
  (time_negation): TemporalNegation(
    (feature_layer_1): Linear(in_features=1600, out_features=800, bias=True)
    (feature_layer_2): Linear(in_features=800, out_features=800, bias=True)
  )
  (time_before): TemporalBefore()
  (time_after): TemporalAfter()
  (time_next): TemporalNext()
  (attribute_value_projection): AttributeValueProjection(
    (dropout): Dropout(p=0.1, inplace=False)
    (layer1): Linear(in_features=4800, out_features=800, bias=True)
    (layer0): Linear(in_features=800, out_features=4800, bias=True)
    (layer2): Linear(in_features=800, out_features=800, bias=True)
  )
  (attribute_time_projection): AttributeTimeProjection(
    (dropout): Dropout(p=0.1, inplace=False)
    (layer1): Linear(in_features=4800, out_features=800, bias=True)
    (layer0): Linear(in_features=800, out_features=4800, bias=True)
    (layer2): Linear(in_features=800, out_features=800, bias=True)
  )
  (attribute_reverse_projection): AttributeReverseProjection(
    (dropout): Dropout(p=0.1, inplace=False)
    (layer1): Linear(in_features=4800, out_features=800, bias=True)
    (layer0): Linear(in_features=800, out_features=4800, bias=True)
    (layer2): Linear(in_features=800, out_features=800, bias=True)
  )
  (value_intersection): ValueIntersection(
    (feature_layer_1): Linear(in_features=1600, out_features=800, bias=True)
    (feature_layer_2): Linear(in_features=800, out_features=800, bias=True)
    (time_feature_layer_1): Linear(in_features=1600, out_features=800, bias=True)
    (time_feature_layer_2): Linear(in_features=800, out_features=800, bias=True)
    (value_feature_layer_1): Linear(in_features=1600, out_features=800, bias=True)
    (value_feature_layer_2): Linear(in_features=800, out_features=800, bias=True)
  )
  (value_union): ValueUnion(
    (feature_layer_1): Linear(in_features=1600, out_features=800, bias=True)
    (feature_layer_2): Linear(in_features=800, out_features=800, bias=True)
    (time_feature_layer_1): Linear(in_features=1600, out_features=800, bias=True)
    (time_feature_layer_2): Linear(in_features=800, out_features=800, bias=True)
    (value_feature_layer_1): Linear(in_features=1600, out_features=800, bias=True)
    (value_feature_layer_2): Linear(in_features=800, out_features=800, bias=True)
  )
  (value_negation): ValueNegation(
    (feature_layer_1): Linear(in_features=1600, out_features=800, bias=True)
    (feature_layer_2): Linear(in_features=800, out_features=800, bias=True)
  )
  (value_greater): ValueGreater()
  (value_smaller): ValueSmaller()
), 'start_step': 0, 'max_steps': 100001, 'every_test_step': 5000, 'every_valid_step': 5000, 'batch_size': 128, 'test_batch_size': 8, 'negative_sample_size': 128, 'train_device': 'cuda:0', 'test_device': 'cuda:0', 'resume': False, 'resume_by_score': 0.0, 'lr': 0.0001, 'cpu_num': 1, 
…
